…
2023-05-14 17:07:40,884 INFO [datamodule.py:278] About to create train dataset
2023-05-14 17:07:40,884 INFO [datamodule.py:307] Using DynamicBucketingSampler
2023-05-14 17:07:43,522 INFO [datamodule.py:325] About to create train dataloader
2023-05-14 17:07:43,523 INFO [datamodule.py:348] About to create dev dataset
2023-05-14 17:07:43,624 INFO [datamodule.py:368] About to create dev dataloader
2023-05-14 17:07:43,624 INFO [trainer.py:1108] Sanity check -- see if any of the batches in epoch 1 would cause OOM.
VALLE(
  (ar_text_embedding): TokenEmbedding(
    (dropout): Dropout(p=0.0, inplace=False)
    (word_embeddings): Embedding(512, 1024)
  )
  (nar_text_embedding): TokenEmbedding(
    (dropout): Dropout(p=0.0, inplace=False)
    (word_embeddings): Embedding(512, 1024)
  )
  (ar_audio_embedding): TokenEmbedding(
    (dropout): Dropout(p=0.0, inplace=False)
    (word_embeddings): Embedding(1025, 1024)
  )
  (ar_text_prenet): Identity()
  (ar_audio_prenet): Identity()
  (ar_text_position): SinePositionalEmbedding(
    (dropout): Dropout(p=0.1, inplace=False)
  )
  (ar_audio_position): SinePositionalEmbedding(
    (dropout): Dropout(p=0.1, inplace=False)
  )
  (ar_decoder): TransformerEncoder(
    (layers): ModuleList(
      (0): TransformerEncoderLayer(
        (self_attn): MultiheadAttention(
          (out_proj): NonDynamicallyQuantizableLinear(in_features=1024, out_features=1024, bias=True)
        )
        (linear1): Linear(in_features=1024, out_features=4096, bias=True)
        (dropout): Dropout(p=0.1, inplace=False)
        (linear2): Linear(in_features=4096, out_features=1024, bias=True)
        (dropout1): Dropout(p=0.1, inplace=False)
        (dropout2): Dropout(p=0.1, inplace=False)
        (norm1): LayerNorm((1024,), eps=1e-05, elementwise_affine=True)
        (norm2): LayerNorm((1024,), eps=1e-05, elementwise_affine=True)
      )
      (1): TransformerEncoderLayer(
        (self_attn): MultiheadAttention(
          (out_proj): NonDynamicallyQuantizableLinear(in_features=1024, out_features=1024, bias=True)
        )
        (linear1): Linear(in_features=1024, out_features=4096, bias=True)
        (dropout): Dropout(p=0.1, inplace=False)
        (linear2): Linear(in_features=4096, out_features=1024, bias=True)
        (dropout1): Dropout(p=0.1, inplace=False)
        (dropout2): Dropout(p=0.1, inplace=False)
        (norm1): LayerNorm((1024,), eps=1e-05, elementwise_affine=True)
        (norm2): LayerNorm((1024,), eps=1e-05, elementwise_affine=True)
      )
      (2): TransformerEncoderLayer(
        (self_attn): MultiheadAttention(
          (out_proj): NonDynamicallyQuantizableLinear(in_features=1024, out_features=1024, bias=True)
        )
        (linear1): Linear(in_features=1024, out_features=4096, bias=True)
        (dropout): Dropout(p=0.1, inplace=False)
        (linear2): Linear(in_features=4096, out_features=1024, bias=True)
        (dropout1): Dropout(p=0.1, inplace=False)
        (dropout2): Dropout(p=0.1, inplace=False)
        (norm1): LayerNorm((1024,), eps=1e-05, elementwise_affine=True)
        (norm2): LayerNorm((1024,), eps=1e-05, elementwise_affine=True)
      )
      (3): TransformerEncoderLayer(
        (self_attn): MultiheadAttention(
          (out_proj): NonDynamicallyQuantizableLinear(in_features=1024, out_features=1024, bias=True)
        )
        (linear1): Linear(in_features=1024, out_features=4096, bias=True)
        (dropout): Dropout(p=0.1, inplace=False)
        (linear2): Linear(in_features=4096, out_features=1024, bias=True)
        (dropout1): Dropout(p=0.1, inplace=False)
        (dropout2): Dropout(p=0.1, inplace=False)
        (norm1): LayerNorm((1024,), eps=1e-05, elementwise_affine=True)
        (norm2): LayerNorm((1024,), eps=1e-05, elementwise_affine=True)
      )
      (4): TransformerEncoderLayer(
        (self_attn): MultiheadAttention(
          (out_proj): NonDynamicallyQuantizableLinear(in_features=1024, out_features=1024, bias=True)
        )
        (linear1): Linear(in_features=1024, out_features=4096, bias=True)
        (dropout): Dropout(p=0.1, inplace=False)
        (linear2): Linear(in_features=4096, out_features=1024, bias=True)
        (dropout1): Dropout(p=0.1, inplace=False)
        (dropout2): Dropout(p=0.1, inplace=False)
        (norm1): LayerNorm((1024,), eps=1e-05, elementwise_affine=True)
        (norm2): LayerNorm((1024,), eps=1e-05, elementwise_affine=True)
      )
      (5): TransformerEncoderLayer(
        (self_attn): MultiheadAttention(
          (out_proj): NonDynamicallyQuantizableLinear(in_features=1024, out_features=1024, bias=True)
        )
        (linear1): Linear(in_features=1024, out_features=4096, bias=True)
        (dropout): Dropout(p=0.1, inplace=False)
        (linear2): Linear(in_features=4096, out_features=1024, bias=True)
        (dropout1): Dropout(p=0.1, inplace=False)
        (dropout2): Dropout(p=0.1, inplace=False)
        (norm1): LayerNorm((1024,), eps=1e-05, elementwise_affine=True)
        (norm2): LayerNorm((1024,), eps=1e-05, elementwise_affine=True)
      )
      (6): TransformerEncoderLayer(
        (self_attn): MultiheadAttention(
          (out_proj): NonDynamicallyQuantizableLinear(in_features=1024, out_features=1024, bias=True)
        )
        (linear1): Linear(in_features=1024, out_features=4096, bias=True)
        (dropout): Dropout(p=0.1, inplace=False)
        (linear2): Linear(in_features=4096, out_features=1024, bias=True)
        (dropout1): Dropout(p=0.1, inplace=False)
        (dropout2): Dropout(p=0.1, inplace=False)
        (norm1): LayerNorm((1024,), eps=1e-05, elementwise_affine=True)
        (norm2): LayerNorm((1024,), eps=1e-05, elementwise_affine=True)
      )
      (7): TransformerEncoderLayer(
        (self_attn): MultiheadAttention(
          (out_proj): NonDynamicallyQuantizableLinear(in_features=1024, out_features=1024, bias=True)
        )
        (linear1): Linear(in_features=1024, out_features=4096, bias=True)
        (dropout): Dropout(p=0.1, inplace=False)
        (linear2): Linear(in_features=4096, out_features=1024, bias=True)
        (dropout1): Dropout(p=0.1, inplace=False)
        (dropout2): Dropout(p=0.1, inplace=False)
        (norm1): LayerNorm((1024,), eps=1e-05, elementwise_affine=True)
        (norm2): LayerNorm((1024,), eps=1e-05, elementwise_affine=True)
      )
      (8): TransformerEncoderLayer(
        (self_attn): MultiheadAttention(
          (out_proj): NonDynamicallyQuantizableLinear(in_features=1024, out_features=1024, bias=True)
        )
        (linear1): Linear(in_features=1024, out_features=4096, bias=True)
        (dropout): Dropout(p=0.1, inplace=False)
        (linear2): Linear(in_features=4096, out_features=1024, bias=True)
        (dropout1): Dropout(p=0.1, inplace=False)
        (dropout2): Dropout(p=0.1, inplace=False)
        (norm1): LayerNorm((1024,), eps=1e-05, elementwise_affine=True)
        (norm2): LayerNorm((1024,), eps=1e-05, elementwise_affine=True)
      )
      (9): TransformerEncoderLayer(
        (self_attn): MultiheadAttention(
          (out_proj): NonDynamicallyQuantizableLinear(in_features=1024, out_features=1024, bias=True)
        )
        (linear1): Linear(in_features=1024, out_features=4096, bias=True)
        (dropout): Dropout(p=0.1, inplace=False)
        (linear2): Linear(in_features=4096, out_features=1024, bias=True)
        (dropout1): Dropout(p=0.1, inplace=False)
        (dropout2): Dropout(p=0.1, inplace=False)
        (norm1): LayerNorm((1024,), eps=1e-05, elementwise_affine=True)
        (norm2): LayerNorm((1024,), eps=1e-05, elementwise_affine=True)
      )
      (10): TransformerEncoderLayer(
        (self_attn): MultiheadAttention(
          (out_proj): NonDynamicallyQuantizableLinear(in_features=1024, out_features=1024, bias=True)
        )
        (linear1): Linear(in_features=1024, out_features=4096, bias=True)
        (dropout): Dropout(p=0.1, inplace=False)
        (linear2): Linear(in_features=4096, out_features=1024, bias=True)
        (dropout1): Dropout(p=0.1, inplace=False)
        (dropout2): Dropout(p=0.1, inplace=False)
        (norm1): LayerNorm((1024,), eps=1e-05, elementwise_affine=True)
        (norm2): LayerNorm((1024,), eps=1e-05, elementwise_affine=True)
      )
      (11): TransformerEncoderLayer(
        (self_attn): MultiheadAttention(
          (out_proj): NonDynamicallyQuantizableLinear(in_features=1024, out_features=1024, bias=True)
        )
        (linear1): Linear(in_features=1024, out_features=4096, bias=True)
        (dropout): Dropout(p=0.1, inplace=False)
        (linear2): Linear(in_features=4096, out_features=1024, bias=True)
        (dropout1): Dropout(p=0.1, inplace=False)
        (dropout2): Dropout(p=0.1, inplace=False)
        (norm1): LayerNorm((1024,), eps=1e-05, elementwise_affine=True)
        (norm2): LayerNorm((1024,), eps=1e-05, elementwise_affine=True)
      )
    )
    (norm): LayerNorm((1024,), eps=1e-05, elementwise_affine=True)
  )
  (ar_predict_layer): Linear(in_features=1024, out_features=1025, bias=False)
  (ar_accuracy_metric): MulticlassAccuracy()
  (nar_audio_embeddings): ModuleList(
    (0): TokenEmbedding(
      (dropout): Dropout(p=0.0, inplace=False)
      (word_embeddings): Embedding(1025, 1024)
    )
    (1): TokenEmbedding(
      (dropout): Dropout(p=0.0, inplace=False)
      (word_embeddings): Embedding(1024, 1024)
    )
    (2): TokenEmbedding(
      (dropout): Dropout(p=0.0, inplace=False)
      (word_embeddings): Embedding(1024, 1024)
    )
    (3): TokenEmbedding(
      (dropout): Dropout(p=0.0, inplace=False)
      (word_embeddings): Embedding(1024, 1024)
    )
    (4): TokenEmbedding(
      (dropout): Dropout(p=0.0, inplace=False)
      (word_embeddings): Embedding(1024, 1024)
    )
    (5): TokenEmbedding(
      (dropout): Dropout(p=0.0, inplace=False)
      (word_embeddings): Embedding(1024, 1024)
    )
    (6): TokenEmbedding(
      (dropout): Dropout(p=0.0, inplace=False)
      (word_embeddings): Embedding(1024, 1024)
    )
    (7): TokenEmbedding(
      (dropout): Dropout(p=0.0, inplace=False)
      (word_embeddings): Embedding(1024, 1024)
    )
  )
  (nar_text_prenet): Identity()
  (nar_audio_prenet): Identity()
  (nar_text_position): SinePositionalEmbedding(
    (dropout): Dropout(p=0.0, inplace=False)
  )
  (nar_audio_position): SinePositionalEmbedding(
    (dropout): Dropout(p=0.1, inplace=False)
  )
  (nar_decoder): TransformerEncoder(
    (layers): ModuleList(
      (0): TransformerEncoderLayer(
        (self_attn): MultiheadAttention(
          (out_proj): NonDynamicallyQuantizableLinear(in_features=1024, out_features=1024, bias=True)
        )
        (linear1): Linear(in_features=1024, out_features=4096, bias=True)
        (dropout): Dropout(p=0.1, inplace=False)
        (linear2): Linear(in_features=4096, out_features=1024, bias=True)
        (dropout1): Dropout(p=0.1, inplace=False)
        (dropout2): Dropout(p=0.1, inplace=False)
        (norm1): AdaptiveLayerNorm(
          (project_layer): Linear(in_features=1024, out_features=2048, bias=True)
          (norm): LayerNorm((1024,), eps=1e-05, elementwise_affine=True)
        )
        (norm2): AdaptiveLayerNorm(
          (project_layer): Linear(in_features=1024, out_features=2048, bias=True)
          (norm): LayerNorm((1024,), eps=1e-05, elementwise_affine=True)
        )
      )
      (1): TransformerEncoderLayer(
        (self_attn): MultiheadAttention(
          (out_proj): NonDynamicallyQuantizableLinear(in_features=1024, out_features=1024, bias=True)
        )
        (linear1): Linear(in_features=1024, out_features=4096, bias=True)
        (dropout): Dropout(p=0.1, inplace=False)
        (linear2): Linear(in_features=4096, out_features=1024, bias=True)
        (dropout1): Dropout(p=0.1, inplace=False)
        (dropout2): Dropout(p=0.1, inplace=False)
        (norm1): AdaptiveLayerNorm(
          (project_layer): Linear(in_features=1024, out_features=2048, bias=True)
          (norm): LayerNorm((1024,), eps=1e-05, elementwise_affine=True)
        )
        (norm2): AdaptiveLayerNorm(
          (project_layer): Linear(in_features=1024, out_features=2048, bias=True)
          (norm): LayerNorm((1024,), eps=1e-05, elementwise_affine=True)
        )
      )
      (2): TransformerEncoderLayer(
        (self_attn): MultiheadAttention(
          (out_proj): NonDynamicallyQuantizableLinear(in_features=1024, out_features=1024, bias=True)
        )
        (linear1): Linear(in_features=1024, out_features=4096, bias=True)
        (dropout): Dropout(p=0.1, inplace=False)
        (linear2): Linear(in_features=4096, out_features=1024, bias=True)
        (dropout1): Dropout(p=0.1, inplace=False)
        (dropout2): Dropout(p=0.1, inplace=False)
        (norm1): AdaptiveLayerNorm(
          (project_layer): Linear(in_features=1024, out_features=2048, bias=True)
          (norm): LayerNorm((1024,), eps=1e-05, elementwise_affine=True)
        )
        (norm2): AdaptiveLayerNorm(
          (project_layer): Linear(in_features=1024, out_features=2048, bias=True)
          (norm): LayerNorm((1024,), eps=1e-05, elementwise_affine=True)
        )
      )
      (3): TransformerEncoderLayer(
        (self_attn): MultiheadAttention(
          (out_proj): NonDynamicallyQuantizableLinear(in_features=1024, out_features=1024, bias=True)
        )
        (linear1): Linear(in_features=1024, out_features=4096, bias=True)
        (dropout): Dropout(p=0.1, inplace=False)
        (linear2): Linear(in_features=4096, out_features=1024, bias=True)
        (dropout1): Dropout(p=0.1, inplace=False)
        (dropout2): Dropout(p=0.1, inplace=False)
        (norm1): AdaptiveLayerNorm(
          (project_layer): Linear(in_features=1024, out_features=2048, bias=True)
          (norm): LayerNorm((1024,), eps=1e-05, elementwise_affine=True)
        )
        (norm2): AdaptiveLayerNorm(
          (project_layer): Linear(in_features=1024, out_features=2048, bias=True)
          (norm): LayerNorm((1024,), eps=1e-05, elementwise_affine=True)
        )
      )
      (4): TransformerEncoderLayer(
        (self_attn): MultiheadAttention(
          (out_proj): NonDynamicallyQuantizableLinear(in_features=1024, out_features=1024, bias=True)
        )
        (linear1): Linear(in_features=1024, out_features=4096, bias=True)
        (dropout): Dropout(p=0.1, inplace=False)
        (linear2): Linear(in_features=4096, out_features=1024, bias=True)
        (dropout1): Dropout(p=0.1, inplace=False)
        (dropout2): Dropout(p=0.1, inplace=False)
        (norm1): AdaptiveLayerNorm(
          (project_layer): Linear(in_features=1024, out_features=2048, bias=True)
          (norm): LayerNorm((1024,), eps=1e-05, elementwise_affine=True)
        )
        (norm2): AdaptiveLayerNorm(
          (project_layer): Linear(in_features=1024, out_features=2048, bias=True)
          (norm): LayerNorm((1024,), eps=1e-05, elementwise_affine=True)
        )
      )
      (5): TransformerEncoderLayer(
        (self_attn): MultiheadAttention(
          (out_proj): NonDynamicallyQuantizableLinear(in_features=1024, out_features=1024, bias=True)
        )
        (linear1): Linear(in_features=1024, out_features=4096, bias=True)
        (dropout): Dropout(p=0.1, inplace=False)
        (linear2): Linear(in_features=4096, out_features=1024, bias=True)
        (dropout1): Dropout(p=0.1, inplace=False)
        (dropout2): Dropout(p=0.1, inplace=False)
        (norm1): AdaptiveLayerNorm(
          (project_layer): Linear(in_features=1024, out_features=2048, bias=True)
          (norm): LayerNorm((1024,), eps=1e-05, elementwise_affine=True)
        )
        (norm2): AdaptiveLayerNorm(
          (project_layer): Linear(in_features=1024, out_features=2048, bias=True)
          (norm): LayerNorm((1024,), eps=1e-05, elementwise_affine=True)
        )
      )
      (6): TransformerEncoderLayer(
        (self_attn): MultiheadAttention(
          (out_proj): NonDynamicallyQuantizableLinear(in_features=1024, out_features=1024, bias=True)
        )
        (linear1): Linear(in_features=1024, out_features=4096, bias=True)
        (dropout): Dropout(p=0.1, inplace=False)
        (linear2): Linear(in_features=4096, out_features=1024, bias=True)
        (dropout1): Dropout(p=0.1, inplace=False)
        (dropout2): Dropout(p=0.1, inplace=False)
        (norm1): AdaptiveLayerNorm(
          (project_layer): Linear(in_features=1024, out_features=2048, bias=True)
          (norm): LayerNorm((1024,), eps=1e-05, elementwise_affine=True)
        )
        (norm2): AdaptiveLayerNorm(
          (project_layer): Linear(in_features=1024, out_features=2048, bias=True)
          (norm): LayerNorm((1024,), eps=1e-05, elementwise_affine=True)
        )
      )
      (7): TransformerEncoderLayer(
        (self_attn): MultiheadAttention(
          (out_proj): NonDynamicallyQuantizableLinear(in_features=1024, out_features=1024, bias=True)
        )
        (linear1): Linear(in_features=1024, out_features=4096, bias=True)
        (dropout): Dropout(p=0.1, inplace=False)
        (linear2): Linear(in_features=4096, out_features=1024, bias=True)
        (dropout1): Dropout(p=0.1, inplace=False)
        (dropout2): Dropout(p=0.1, inplace=False)
        (norm1): AdaptiveLayerNorm(
          (project_layer): Linear(in_features=1024, out_features=2048, bias=True)
          (norm): LayerNorm((1024,), eps=1e-05, elementwise_affine=True)
        )
        (norm2): AdaptiveLayerNorm(
          (project_layer): Linear(in_features=1024, out_features=2048, bias=True)
          (norm): LayerNorm((1024,), eps=1e-05, elementwise_affine=True)
        )
      )
      (8): TransformerEncoderLayer(
        (self_attn): MultiheadAttention(
          (out_proj): NonDynamicallyQuantizableLinear(in_features=1024, out_features=1024, bias=True)
        )
        (linear1): Linear(in_features=1024, out_features=4096, bias=True)
        (dropout): Dropout(p=0.1, inplace=False)
        (linear2): Linear(in_features=4096, out_features=1024, bias=True)
        (dropout1): Dropout(p=0.1, inplace=False)
        (dropout2): Dropout(p=0.1, inplace=False)
        (norm1): AdaptiveLayerNorm(
          (project_layer): Linear(in_features=1024, out_features=2048, bias=True)
          (norm): LayerNorm((1024,), eps=1e-05, elementwise_affine=True)
        )
        (norm2): AdaptiveLayerNorm(
          (project_layer): Linear(in_features=1024, out_features=2048, bias=True)
          (norm): LayerNorm((1024,), eps=1e-05, elementwise_affine=True)
        )
      )
      (9): TransformerEncoderLayer(
        (self_attn): MultiheadAttention(
          (out_proj): NonDynamicallyQuantizableLinear(in_features=1024, out_features=1024, bias=True)
        )
        (linear1): Linear(in_features=1024, out_features=4096, bias=True)
        (dropout): Dropout(p=0.1, inplace=False)
        (linear2): Linear(in_features=4096, out_features=1024, bias=True)
        (dropout1): Dropout(p=0.1, inplace=False)
        (dropout2): Dropout(p=0.1, inplace=False)
        (norm1): AdaptiveLayerNorm(
          (project_layer): Linear(in_features=1024, out_features=2048, bias=True)
          (norm): LayerNorm((1024,), eps=1e-05, elementwise_affine=True)
        )
        (norm2): AdaptiveLayerNorm(
          (project_layer): Linear(in_features=1024, out_features=2048, bias=True)
          (norm): LayerNorm((1024,), eps=1e-05, elementwise_affine=True)
        )
      )
      (10): TransformerEncoderLayer(
        (self_attn): MultiheadAttention(
          (out_proj): NonDynamicallyQuantizableLinear(in_features=1024, out_features=1024, bias=True)
        )
        (linear1): Linear(in_features=1024, out_features=4096, bias=True)
        (dropout): Dropout(p=0.1, inplace=False)
        (linear2): Linear(in_features=4096, out_features=1024, bias=True)
        (dropout1): Dropout(p=0.1, inplace=False)
        (dropout2): Dropout(p=0.1, inplace=False)
        (norm1): AdaptiveLayerNorm(
          (project_layer): Linear(in_features=1024, out_features=2048, bias=True)
          (norm): LayerNorm((1024,), eps=1e-05, elementwise_affine=True)
        )
        (norm2): AdaptiveLayerNorm(
          (project_layer): Linear(in_features=1024, out_features=2048, bias=True)
          (norm): LayerNorm((1024,), eps=1e-05, elementwise_affine=True)
        )
      )
      (11): TransformerEncoderLayer(
        (self_attn): MultiheadAttention(
          (out_proj): NonDynamicallyQuantizableLinear(in_features=1024, out_features=1024, bias=True)
        )
        (linear1): Linear(in_features=1024, out_features=4096, bias=True)
        (dropout): Dropout(p=0.1, inplace=False)
        (linear2): Linear(in_features=4096, out_features=1024, bias=True)
        (dropout1): Dropout(p=0.1, inplace=False)
        (dropout2): Dropout(p=0.1, inplace=False)
        (norm1): AdaptiveLayerNorm(
          (project_layer): Linear(in_features=1024, out_features=2048, bias=True)
          (norm): LayerNorm((1024,), eps=1e-05, elementwise_affine=True)
        )
        (norm2): AdaptiveLayerNorm(
          (project_layer): Linear(in_features=1024, out_features=2048, bias=True)
          (norm): LayerNorm((1024,), eps=1e-05, elementwise_affine=True)
        )
      )
    )
    (norm): AdaptiveLayerNorm(
      (project_layer): Linear(in_features=1024, out_features=2048, bias=True)
      (norm): LayerNorm((1024,), eps=1e-05, elementwise_affine=True)
    )
  )
  (nar_predict_layers): ModuleList(
    (0): Linear(in_features=1024, out_features=1024, bias=False)
    (1): Linear(in_features=1024, out_features=1024, bias=False)
    (2): Linear(in_features=1024, out_features=1024, bias=False)
    (3): Linear(in_features=1024, out_features=1024, bias=False)
    (4): Linear(in_features=1024, out_features=1024, bias=False)
    (5): Linear(in_features=1024, out_features=1024, bias=False)
    (6): Linear(in_features=1024, out_features=1024, bias=False)
  )
  (nar_stage_embeddings): ModuleList(
    (0): TokenEmbedding(
      (dropout): Dropout(p=0.0, inplace=False)
      (word_embeddings): Embedding(1, 1024)
    )
    (1): TokenEmbedding(
      (dropout): Dropout(p=0.0, inplace=False)
      (word_embeddings): Embedding(1, 1024)
    )
    (2): TokenEmbedding(
      (dropout): Dropout(p=0.0, inplace=False)
      (word_embeddings): Embedding(1, 1024)
    )
    (3): TokenEmbedding(
      (dropout): Dropout(p=0.0, inplace=False)
      (word_embeddings): Embedding(1, 1024)
    )
    (4): TokenEmbedding(
      (dropout): Dropout(p=0.0, inplace=False)
      (word_embeddings): Embedding(1, 1024)
    )
    (5): TokenEmbedding(
      (dropout): Dropout(p=0.0, inplace=False)
      (word_embeddings): Embedding(1, 1024)
    )
    (6): TokenEmbedding(
      (dropout): Dropout(p=0.0, inplace=False)
      (word_embeddings): Embedding(1, 1024)
    )
  )
  (nar_accuracy_metric): MulticlassAccuracy()
)
 AR parameter: ar_text_embedding.word_embeddings.weight
 AR parameter: ar_audio_embedding.word_embeddings.weight
 AR parameter: ar_text_position.alpha
 AR parameter: ar_audio_position.alpha
 AR parameter: ar_decoder.layers.0.self_attn.in_proj_weight
 AR parameter: ar_decoder.layers.0.self_attn.in_proj_bias
 AR parameter: ar_decoder.layers.0.self_attn.out_proj.weight
…
